…
          "base_uri": "https://localhost:8080/"
        },
        "outputId": "f75f1553-7392-4be0-8003-0756544d7034"
      },
      "source": [
        "print(model.summary())"
      ],
      "execution_count": null,
      "outputs": [
        {
          "output_type": "stream",
          "text": [
            "Model: \"sequential\"\n",
            "_________________________________________________________________\n",
            "Layer (type)                 Output Shape              Param #   \n",
            "=================================================================\n",
            "conv2d (Conv2D)              (None, 32, 32, 32)        896       \n",
            "_________________________________________________________________\n",
            "activation (Activation)      (None, 32, 32, 32)        0         \n",
            "_________________________________________________________________\n",
            "dropout (Dropout)            (None, 32, 32, 32)        0         \n",
            "_________________________________________________________________\n",
            "batch_normalization (BatchNo (None, 32, 32, 32)        128       \n",
            "_________________________________________________________________\n",
            "conv2d_1 (Conv2D)            (None, 32, 32, 64)        18496     \n",
            "_________________________________________________________________\n",
            "activation_1 (Activation)    (None, 32, 32, 64)        0         \n",
            "_________________________________________________________________\n",
            "max_pooling2d (MaxPooling2D) (None, 16, 16, 64)        0         \n",
            "_________________________________________________________________\n",
            "dropout_1 (Dropout)          (None, 16, 16, 64)        0         \n",
            "_________________________________________________________________\n",
            "batch_normalization_1 (Batch (None, 16, 16, 64)        256       \n",
            "_________________________________________________________________\n",
            "conv2d_2 (Conv2D)            (None, 16, 16, 128)       73856     \n",
            "_________________________________________________________________\n",
            "activation_2 (Activation)    (None, 16, 16, 128)       0         \n",
            "_________________________________________________________________\n",
            "max_pooling2d_1 (MaxPooling2 (None, 8, 8, 128)         0         \n",
            "_________________________________________________________________\n",
            "dropout_2 (Dropout)          (None, 8, 8, 128)         0         \n",
            "_________________________________________________________________\n",
            "batch_normalization_2 (Batch (None, 8, 8, 128)         512       \n",
            "_________________________________________________________________\n",
            "flatten (Flatten)            (None, 8192)              0         \n",
            "_________________________________________________________________\n",
            "dropout_3 (Dropout)          (None, 8192)              0         \n",
            "_________________________________________________________________\n",
            "dense (Dense)                (None, 256)               2097408   \n",
            "_________________________________________________________________\n",
            "activation_3 (Activation)    (None, 256)               0         \n",
            "_________________________________________________________________\n",
            "dropout_4 (Dropout)          (None, 256)               0         \n",
            "_________________________________________________________________\n",
            "batch_normalization_3 (Batch (None, 256)               1024      \n",
            "_________________________________________________________________\n",
            "dense_1 (Dense)              (None, 128)               32896     \n",
            "_________________________________________________________________\n",
            "activation_4 (Activation)    (None, 128)               0         \n",
            "_________________________________________________________________\n",
            "dropout_5 (Dropout)          (None, 128)               0         \n",
            "_________________________________________________________________\n",
            "batch_normalization_4 (Batch (None, 128)               512       \n",
            "_________________________________________________________________\n",
            "dense_2 (Dense)              (None, 10)                1290      \n",
            "_________________________________________________________________\n",
            "activation_5 (Activation)    (None, 10)                0         \n",
            "=================================================================\n",
            "Total params: 2,227,274\n",
            "Trainable params: 2,226,058\n",
            "Non-trainable params: 1,216\n",
            "_________________________________________________________________\n",
            "None\n"
          ],
          "name": "stdout"
        }
      ]
    },
    {
…
